output_model_MNIST/netD_epoch_159.pth (torch_old, 671266 bytes, 12 tensors)

main.input-conv.weight f4 [32, 1, 4, 4]
00000000: 637d 72bc 52b9 af3c 808c 93bc b02b 77bb
00000010: 0da1 0b3d f935 453c d12e 20bc a252 923b
00000020: aced 073c 6e48 433d 4652 bebc 7cf5 34bc
00000030: 8949 93bb 2a3b 773c 4125 773c 1458 a7bc
00000040: ac65 e33a 42f2 ef3c 53ab 0a3d 168e 06bd
00000050: e805 893b d39b 74bc 0dfa bdbc 63c5 933b
00000060: c7b8 883b ec90 f2bc 4e29 aebc c258 4ebb
00000070: acb9 5c3c b993 a83b f84f 1cbd 770f aa3b
00000080: 20c2 e4ba 6ea8 38bc 1129 93bc 0b1f 083b
00000090: 6148 403b 04d0 4dba f3b8 e0bc 19e7 8f3c
000000a0: e0ad c2bb 7dff 1cbc 1827 d03c 6c73 9a3c
000000b0: eb0e d9bc e79c 913b f0b3 a5bb 327d 973b
000000c0: 84a4 01bc be36 22bd dcbd 37bb 6dd7 3dbc
000000d0: 6798 153c 8206 ee3b abf5 173c 775a 103c
000000e0: ac14 083b b523 dfbc 0c49 13bb eb7b 99bb
000000f0: ceca c2bc 87d1 dcbc ed76 9b3b 33e0 acbb
00000100: 72fa d2bc 4df9 283b 6e8e ccbc 6fe1 c53c
00000110: 5089 1d3c 095c 253d 1b0b a63b d3aa 12bd
00000120: 66e2 13bc 3e62 233c 4e01 3cbc 01ae f03c
00000130: e476 95bc 846b 22bb ead4 89ba f820 63bb
00000140: 5cae ebbc 02c5 143c c611 d639 5838 003c
00000150: e075 1d3d 0c08 d2ba 043e 15bc 394c 32bb
00000160: 7c21 65bc ef9e 9cbc 8dba c2bc 1dfc 873c
00000170: ca79 7fbb eda0 bf3b 801c 83bb 641a b6bc
00000180: 9dd1 66bc 8772 a63c 8d23 aa3b 9a86 16ba
00000190: 92b2 e93b c687 0cbc 79bc 163d 70e1 5639
000001a0: 9947 a03c f663 9d3b 19c3 52bc 5974 49bb
000001b0: 4563 5e3c 8a5d e6bc bd03 d83c 2744 033a
000001c0: 909c 86bc f417 afbc 2ec2 653b 00db 793c
000001d0: 9c30 a9bb ea67 2e3d 5c19 5cbc 3646 233d
000001e0: 2b8e 6f3b d24f b1bc 3511 1fbb d557 ca3b
000001f0: f149 83ba 6d83 bdbc 4f79 083d 90c9 aa3c
00000200: 1e7c 40bd 586f d93b 2a78 14bc fb32 0c3d
00000210: f4e0 f43b f31b d3bb ad04 bbbb f7d6 f23c
00000220: a9ba 293a 40ce 0dbc 8bcd 723c ef38 6dbb
00000230: 45b8 a9bc 5619 86bb 2614 b0bc 27e9 b03c
00000240: 2041 00bc afe2 f4bc 2d4e 473d 5b95 36bd
00000250: c556 a83b 4124 aabc bceb c53c 0a3b a4bc
00000260: 5075 f5bc 6143 e33b f882 9bbc 3d06 a53c
00000270: c6af d13c 6d6f a1bb ab2d efbb 5055 02bc
00000280: 1ee8 0ebb 3b12 29bc da66 873c 8062 c33c
00000290: 17a3 4e3c 2171 8ebb 46ec bebc 2999 7abc
000002a0: 3c20 c6bb 13fc 79bc 8b11 ee3b 9be3 13bc
000002b0: fb92 4fbb 4063 2b3b ca44 b7bb 545c 07bc
000002c0: 103d b2bc 5d73 003d 738b af3a 001b 90ba
000002d0: df42 10bc 5255 57bb c153 91ba d707 883c
000002e0: 7e32 b03c 6e1e df3c 656d bcbc 6a60 053d
000002f0: 6bd5 4f3c b055 a8bc ef7b da3c 19d0 a13c
00000300: 692d 1e3b d088 de39 0b3b 84bc 0b40 66bc
00000310: c4c8 8b3c 0220 983c 328a c4bb f8c5 72bc
00000320: b79e 90bc fa31 8bbc 4662 193c ab8c 9abc
00000330: c1c2 5c3c 42f5 41bd 3069 dcbc 2b66 15bc
00000340: 5dcc 9e3c 1e46 143d 1e67 7a3b a27d 063c
00000350: b5a2 813c 9717 253d 1906 59bb ce9f 8ebb
00000360: 2ebe d1bc 9acf 19bb 3d7f 8b3c b90e cbbc
00000370: 4786 043c b215 1e3c aac5 293d 1bab 1fbc
00000380: 0386 75bb cfc5 58bc 357d 23bd 1e17 f93b
00000390: 46ab c33a e70b c1bc c5d9 163b 6776 473d
000003a0: f244 cf3b 41aa 3e3c f75f cf39 cdb4 103d
000003b0: 0bbf 803b 4dc5 cb3b b733 22bc de76 7a3c
000003c0: c72a e8ba da3b 94bc e7d6 b23c b2c1 5a3b
000003d0: efa8 493c 9a2d 0c3b d7a0 cabc c0a1 aeba
000003e0: dd60 373a 36b2 8f3b 9212 4cbc fbb1 0d3c
000003f0: afbc 693c 606d c13b 0ded 8e39 6701 afbc
-0.014800402 0.021450672 -0.018011332 -0.0037715249 0.034089137 0.012036794 -0.009776787 0.004465417
0.0082964115 0.047676496 -0.02323259 -0.011044856 -0.00449485 0.015089789 0.015084566 -0.020427741
0.0017349026 0.029290322 0.033854794 -0.032850347 0.0041816123 -0.0149297295 -0.023190523 0.0045096143
0.004172418 -0.02961012 -0.02125993 -0.003148601 0.013472002 0.005144563 -0.0381622 0.005189832
-0.0017452873 -0.0112706255 -0.017963918 0.0020770456 0.0029340016 -0.0007851126 -0.02743194 0.01756625
-0.0059411377 -0.0095823975 0.025409266 0.018853866 -0.026496371 0.004443753 -0.0050568506 0.0046230787
-0.007912759 -0.039602987 -0.002803675 -0.011587006 0.009130574 0.0072639594 0.00927488 0.008810631
0.0020764275 -0.027238706 -0.002247396 -0.0046839616 -0.023778345 -0.02695538 0.0047444017 -0.00527575
-0.025754187 0.002578336 -0.02497026 0.024155347 0.009615257 0.040370975 0.005067242 -0.035807442
-0.009026146 0.009972153 -0.01147492 0.029379847 -0.018245168 -0.0024783323 -0.0010515724 -0.0034657102
-0.028769664 0.009080173 0.00040830503 0.007825933 0.038442492 -0.0016024127 -0.009109024 -0.0027206077
-0.013985034 -0.019118754 -0.023770595 0.01659971 -0.0038982504 0.0058480413 -0.0040012 -0.02222938
-0.014088062 0.020318283 0.0051922263 -0.0005742103 0.007131883 -0.008577293 0.036800835 0.00020492612
0.01956539 0.004803176 -0.012863898 -0.0030739515 0.013573472 -0.028120775 0.02636897 0.0005007409
-0.016432077 -0.021373726 0.0035058367 0.015249968 -0.0051632654 0.04257957 -0.0134337805 0.03986188
0.0036553245 -0.021644507 -0.002427173 0.006175021 -0.0010016543 -0.023133958 0.033318814 0.020848066
-0.046993367 0.0066355877 -0.0090618525 0.034228306 0.0074731056 -0.006442541 -0.0057073445 0.029643519
0.0006474653 -0.008655131 0.014819513 -0.0036197265 -0.02071775 -0.0040923757 -0.021493983 0.02159555
-0.007828027 -0.029893247 0.04865854 -0.04457603 0.005137297 -0.02076924 0.024160258 -0.020047683
-0.029963166 0.0069355224 -0.01898335 0.020144576 0.02559651 -0.004926613 -0.007299145 -0.00795491
-0.0021805833 -0.010319288 0.016528536 0.02385068 0.012612126 -0.004346982 -0.023306023 -0.015295305
-0.006046323 -0.015257853 0.007265275 -0.009026433 -0.00316733 0.0026151687 -0.005592917 -0.008261759
-0.021757632 0.03136002 0.0013393 -0.0010994375 -0.008805006 -0.0032857251 -0.0011087583 0.0166053
0.021508452 0.02723619 -0.023001382 0.03256265 0.01268516 -0.020548671 0.026670424 0.019752549
0.0024135953 0.00042445073 -0.016141435 -0.014053355 0.017063506 0.01856995 -0.0059979195 -0.014817707
-0.017653806 -0.016991604 0.009361809 -0.018865904 0.013474167 -0.047353037 -0.026905626 -0.009118597
0.019384557 0.03619968 0.0038208435 0.008208664 0.015824655 0.0403057 -0.0033115207 -0.0043525463
-0.02560338 -0.0023469687 0.017028445 -0.024787294 0.008088655 0.009648727 0.041448273 -0.009745385
-0.003746391 -0.013230755 -0.03991433 0.0076016327 0.0014928363 -0.023565246 0.0023017984 0.0486969
0.0063253576 0.011637271 0.00039553616 0.035328675 0.003929024 0.0062185884 -0.009900025 0.015287129
-0.0017712944 -0.018094946 0.021830989 0.0033379612 0.012308343 0.0021389485 -0.024734898 -0.0013323352
0.000699533 0.004385258 -0.012455599 0.008648391 0.014266177 0.005902931 0.00027260967 -0.021362973

main.pyramid_32-64_conv.weight f4 [64, 32, 4, 4]
00000000: 6a15 37bb d764 82bc 2463 de3c bc5e 8db8
00000010: 4a50 eb3c ebd5 97bc 96c8 a93c c974 bebc
00000020: 2ea6 79bb f7ee f1ba 72e0 c6bc e04c 193b
00000030: 23d4 85bc f491 9c3c 3141 9a3c 5d53 4b3b
00000040: a992 b63c a2a8 583c 9207 3f3c ca5e d3bb
00000050: 6993 db3a c5fc f33c 0713 e23c aa3c b23b
00000060: 7c92 903c b800 803b 4dfb 863b 307a 203c
00000070: 1874 acbc b5db 993c 0aae 73bc 3781 9e3c
00000080: 7d35 63ba e7ad 313d 0757 b9bc 5b72 c53c
00000090: ee4b 6b3b 721b 57bc 644e 203b 169c 8fbc
000000a0: ca82 c7bb 679a b4bb d8e4 f1bc 1e6b 9cbc
000000b0: f00b 943b 872d d53c 2912 1c3d b5ed d5bc
000000c0: 4cd5 f5bb e075 c33a 4a70 13bc bdbe abbb
000000d0: c44f 913b 46f1 e13b c0df d4bb c50a 283d
000000e0: 740a 263c 04d7 b2bc 6777 c53b aa33 403c
000000f0: be35 6d3c 78c2 1a3b 39b6 9d3c 875f 85b9
00000100: e35b 1e3d 9c36 da3c ee8c 44bc 7b96 debc
00000110: b037 113b f04c a33b 9c93 5fbb a948 1c3d
00000120: 206b 4a3c fbfa 00bc 2545 a9bc bb3a fdbc
00000130: 8c8b 593c 0998 603c f58e ec3b 3ae6 9bbc
00000140: 42a5 df3c 370b d83c 3287 773b 619d 78bc
00000150: e399 09bd 0e1c 2ebc 8731 54bb 095e 5fbb
00000160: a47f 87bc 5434 14bc 575b 233d 35e2 36bc
00000170: 7588 663c 48c5 87bc dff0 8e3c d201 9e3c
00000180: 135b f9bc fbb3 b83c 2444 47bc 7431 903b
00000190: 8443 523c 79d3 4fbd 773e c53c 8a25 36bc
000001a0: 7fd1 0abd ced8 4bbb a047 9f3c c5c1 7a3b
000001b0: a609 f0bb 4fe3 adbb 4d84 133d 6135 c33c
000001c0: f7fe f43c 7eb6 213c 1d2c 31bc d9be 153c
000001d0: 21f9 443a be86 a63b 0ad4 053c 6271 c3bb
000001e0: 3db3 343c 2fbe 8e3b 73ae 15bc 26d1 6dbc
000001f0: 7239 05bc 957e d23c a9d3 d739 8eff 1c3c
00000200: 199b afba 2217 71bb 45b3 b0bc 51c7 803c
00000210: 0b9f 4dbc 3683 993c 1444 c9ba d2ae 92bc
00000220: cde8 1b3a 1351 a23c c93a af3c b412 043c
00000230: efbb b63c 1cbd d4bb 3e5b 8a3c 7baa aabb
00000240: 8291 2a3b 9c92 013d 9f08 18bb 94c3 903a
00000250: 8ecf 7f3c 7308 38bd 6970 a03c 9084 fabc
00000260: 5052 74bb af74 43bc d5c8 46bb 9713 8bbd
00000270: 829b 6fbc cc17 8a3c cbe8 51bb 8976 c8bc
00000280: cf17 b8bb 19a4 2abc 793f 023d fa73 133c
00000290: ff55 0a3c 812f f7bc 084e a23b 24ed 30bc
000002a0: b4eb 9fbc f3c7 583c 8597 303d 42c2 213b
000002b0: e0b6 69ba dbcc a1bc aeb6 b83b 8ffd 613c
000002c0: ec76 08bb 06d3 3ebc 8607 54bc 7bf3 e83b
000002d0: 8a0d 29bc 4667 2b3d 9a93 00bd 9c71 f63c
000002e0: 2bbb 0cbd 1732 f5bb bc14 083c ead3 62bb
000002f0: c78d 45ba 18ff f23c eaae bf3c 4a0b 34bc
00000300: 494f 54bc cf59 453c f4df 19bd c2eb 623c
00000310: 74d0 e3bb efe0 6b3b 6e46 babc 2a1b 483c
00000320: 0a3c 40bc 02d2 113b d4ae e43c b434 31bc
00000330: e1e7 c4bb 5959 18bd 667e d0bc 41e2 323c
00000340: d596 4b3b 9e1a 38bc d93b d2bc 3e76 053d
00000350: 489f 03bb 3393 9a3c b0b4 2abc 8f93 24bd
00000360: cb08 6c3b a13c a4bc 9496 813c 1ca1 43bd
00000370: b658 ab3b 5bc1 3fbc b0e0 ec3c ee2a 2c3d
00000380: 133c 0a3d 70d8 393c 41c3 4a3d 0778 833c
00000390: 79f3 8d3b 7030 7dba f921 693c 27bf af3c
000003a0: 2ebd 703c d805 93bb 04ac 4bbc 1e92 b6bb
000003b0: f87c 2ebc 8a01 85bc a346 1c3c b7ce dabc
000003c0: a739 de3c 1758 15bc 6175 be3c 4b96 f4bc
000003d0: 670d 4c3c 678b bbbc a583 dc36 eeff 9a3a
000003e0: 343f df3c 2c8d 853c 6215 7a3c a6e6 21bc
000003f0: fe9b d6bc 8f55 dabc cf01 13bc b30d d4bc
-0.0027936348 -0.015917225 0.027146883 -6.7410496e-05 0.028724808 -0.018534621 0.02072553 -0.023249047
-0.0038093436 -0.0018458058 -0.024276946 0.0023391768 -0.016336506 0.019112565 0.018829914 0.003102503
0.02228673 0.013223799 0.01165952 -0.0064505087 0.0016752306 0.029783616 0.027596964 0.0054393606
0.017647974 0.0039063357 0.004119313 0.009794757 -0.021051452 0.018781522 -0.014873037 0.019348724
-0.0008667333 0.043378737 -0.022624506 0.02410238 0.0035903412 -0.013129102 0.0024460787 -0.017530482
-0.0060885893 -0.0055115703 -0.029528067 -0.019094046 0.0045180246 0.026022686 0.038103256 -0.026114324
-0.0075022336 0.0014912449 -0.00899894 -0.0052412436 0.0044345576 0.006895217 -0.0064963996 0.041025896
0.010134328 -0.021831043 0.0060261968 0.011731068 0.014478145 0.0023614448 0.01925193 -0.0002543891
0.03866185 0.026637368 -0.011996491 -0.027171364 0.0022158436 0.004983537 -0.0034115082 0.03815523
0.012354642 -0.007872338 -0.020662853 -0.030911794 0.0132778995 0.013708123 0.0072191902 -0.019030679
0.02730048 0.026372535 0.0037769792 -0.015174241 -0.033594023 -0.010626806 -0.0032378153 -0.003408315
-0.016540356 -0.009045679 0.03988203 -0.01116233 0.01407062 -0.016573563 0.01744884 0.019287977
-0.030438935 0.022546759 -0.012162242 0.0044004265 0.01283348 -0.050738785 0.024077637 -0.011117348
-0.033891197 -0.0031104567 0.019443333 0.0038262468 -0.007325369 -0.0053066383 0.036014844 0.023829164
0.029906733 0.00987017 -0.01081374 0.00913974 0.000751393 0.0050819805 0.00816823 -0.005964444
0.011029062 0.0043561677 -0.00913583 -0.014515197 -0.008131372 0.025695125 0.00041165695 0.009582413
-0.0013397663 -0.003678747 -0.021569857 0.015720041 -0.012550126 0.018739324 -0.0015355372 -0.017905626
0.0005947471 0.01981405 0.021390336 0.0080611 0.02230641 -0.00649227 0.01688921 -0.005208311
0.002602667 0.03163396 -0.0023198498 0.0011044615 0.01561345 -0.044929933 0.019584851 -0.030580789
-0.0037280507 -0.011929675 -0.0030332108 -0.06790846 -0.014624478 0.01685705 -0.0032029625 -0.024470584
-0.0056180726 -0.0104151005 0.031798813 0.008999819 0.008443355 -0.030174019 0.0049531497 -0.010798726
-0.019521572 0.013231265 0.04311325 0.0024682437 -0.0008915495 -0.019751003 0.0056370115 0.013793363
-0.0020822836 -0.011646992 -0.012941247 0.0071091033 -0.010318169 0.041846536 -0.031390764 0.03008347
-0.034358185 -0.007482778 0.008305725 -0.0034611174 -0.000753608 0.029662654 0.023398835 -0.01098902
-0.012958356 0.012045338 -0.037567094 0.013850154 -0.00695234 0.0035992225 -0.022738662 0.012213508
-0.011733064 0.0022250419 0.027915396 -0.010815788 -0.0060090874 -0.037194584 -0.025450896 0.010918201
0.0031065245 -0.011236815 -0.025663303 0.032583468 -0.0020083953 0.018869018 -0.010419056 -0.040179785
0.0036015983 -0.020048441 0.015818872 -0.047761068 0.005229081 -0.011703814 0.028915733 0.04203313
0.033748697 0.011343107 0.049502615 0.016048444 0.0043320027 -0.0009658402 0.014229291 0.021453453
0.014693541 -0.0044867806 -0.012431148 -0.0055716177 -0.010649912 -0.016236085 0.0095383255 -0.026709897
0.0271271 -0.009115241 0.02324933 -0.029856822 0.012454367 -0.02289362 6.5718364e-06 0.001182554
0.027251817 0.016302668 0.015263887 -0.009881651 -0.02619743 -0.026652126 -0.008972599 -0.025885439

main.pyramid_64_batchnorm.weight f4 [64]
00000000: 44de 803f 59ae 813f 50d5 803f 6615 823f
00000010: 10cf 7b3f fb27 803f d044 7d3f 1929 803f
00000020: 8c1b 803f fe68 803f 942d 7c3f 0d03 793f
00000030: f8c3 7d3f 2dad 803f 82f8 803f 79c6 813f
00000040: cbb7 7f3f 927f 7e3f aebe 7d3f 02a3 833f
00000050: 3b84 853f c1ff 813f 1762 7e3f 727c 803f
00000060: 7ed1 783f d172 833f 0f24 813f 54d0 7b3f
00000070: 4e2d 803f 62ab 833f 0722 813f dbcc 783f
00000080: 0d13 803f 71a1 7a3f 1d03 7f3f 89d1 7d3f
00000090: efa5 863f 511e 7c3f c673 7c3f 8acd 823f
000000a0: 0bf9 7b3f 7c66 7f3f ae23 833f c9ab 813f
000000b0: 32f9 813f 1ffa 823f 9734 7a3f 6100 813f
000000c0: 004d 793f 9467 813f 9664 833f a0de 803f
000000d0: 4f81 7b3f 457f 7e3f 57cc 793f 92be 823f
000000e0: 50cf 863f 709e 803f f1d3 7f3f fb6d 803f
000000f0: c15e 843f 0569 7e3f 70c9 793f d948 7b3f
1.006783 1.0131332 1.0065098 1.016278 0.9836283 1.0012201 0.98933125 1.0012542
1.0008407 1.0032041 0.98507047 0.9727028 0.9912715 1.0052849 1.0075839 1.0138694
0.9988982 0.99413407 0.9911908 1.0284121 1.0430979 1.0156175 0.99368423 1.0037978
0.9719466 1.0269414 1.0089129 0.9836476 1.0013826 1.0286677 1.0088509 0.97187585
1.0005814 0.9790259 0.99614125 0.9914785 1.0519389 0.9848376 0.98614156 1.0218976
0.98426884 0.99765754 1.0245264 1.013055 1.0154173 1.0232581 0.97736496 1.0078241
0.9738312 1.0109735 1.0265071 1.006794 0.98244184 0.9941295 0.9757742 1.0214407
1.0532017 1.0048351 0.9993277 1.0033563 1.0341417 0.99379 0.97572994 0.9815803

main.pyramid_64_batchnorm.bias f4 [64]
00000000: 0000 0000 0000 0000 0000 0000 0000 0000
00000010: 0000 0000 0000 0000 0000 0000 0000 0000
00000020: 0000 0000 0000 0000 0000 0000 0000 0000
00000030: 0000 0000 0000 0000 0000 0000 0000 0000
00000040: 0000 0000 0000 0000 0000 0000 0000 0000
00000050: 0000 0000 0000 0000 0000 0000 0000 0000
00000060: 0000 0000 0000 0000 0000 0000 0000 0000
00000070: 0000 0000 0000 0000 0000 0000 0000 0000
00000080: 0000 0000 0000 0000 0000 0000 0000 0000
00000090: 0000 0000 0000 0000 0000 0000 0000 0000
000000a0: 0000 0000 0000 0000 0000 0000 0000 0000
000000b0: 0000 0000 0000 0000 0000 0000 0000 0000
000000c0: 0000 0000 0000 0000 0000 0000 0000 0000
000000d0: 0000 0000 0000 0000 0000 0000 0000 0000
000000e0: 0000 0000 0000 0000 0000 0000 0000 0000
000000f0: 0000 0000 0000 0000 0000 0000 0000 0000
0.0 0.0 0.0 0.0 0.0 0.0 0.0 0.0
0.0 0.0 0.0 0.0 0.0 0.0 0.0 0.0
0.0 0.0 0.0 0.0 0.0 0.0 0.0 0.0
0.0 0.0 0.0 0.0 0.0 0.0 0.0 0.0
0.0 0.0 0.0 0.0 0.0 0.0 0.0 0.0
0.0 0.0 0.0 0.0 0.0 0.0 0.0 0.0
0.0 0.0 0.0 0.0 0.0 0.0 0.0 0.0
0.0 0.0 0.0 0.0 0.0 0.0 0.0 0.0

main.pyramid_64_batchnorm.running_mean f4 [64]
00000000: 0000 0000 0000 0000 0000 0000 0000 0000
00000010: 0000 0000 0000 0000 0000 0000 0000 0000
00000020: 0000 0000 0000 0000 0000 0000 0000 0000
00000030: 0000 0000 0000 0000 0000 0000 0000 0000
00000040: 0000 0000 0000 0000 0000 0000 0000 0000
00000050: 0000 0000 0000 0000 0000 0000 0000 0000
00000060: 0000 0000 0000 0000 0000 0000 0000 0000
00000070: 0000 0000 0000 0000 0000 0000 0000 0000
00000080: 0000 0000 0000 0000 0000 0000 0000 0000
00000090: 0000 0000 0000 0000 0000 0000 0000 0000
000000a0: 0000 0000 0000 0000 0000 0000 0000 0000
000000b0: 0000 0000 0000 0000 0000 0000 0000 0000
000000c0: 0000 0000 0000 0000 0000 0000 0000 0000
000000d0: 0000 0000 0000 0000 0000 0000 0000 0000
000000e0: 0000 0000 0000 0000 0000 0000 0000 0000
000000f0: 0000 0000 0000 0000 0000 0000 0000 0000
0.0 0.0 0.0 0.0 0.0 0.0 0.0 0.0
0.0 0.0 0.0 0.0 0.0 0.0 0.0 0.0
0.0 0.0 0.0 0.0 0.0 0.0 0.0 0.0
0.0 0.0 0.0 0.0 0.0 0.0 0.0 0.0
0.0 0.0 0.0 0.0 0.0 0.0 0.0 0.0
0.0 0.0 0.0 0.0 0.0 0.0 0.0 0.0
0.0 0.0 0.0 0.0 0.0 0.0 0.0 0.0
0.0 0.0 0.0 0.0 0.0 0.0 0.0 0.0

main.pyramid_64_batchnorm.running_var f4 [64]
00000000: 0000 803f 0000 803f 0000 803f 0000 803f
00000010: 0000 803f 0000 803f 0000 803f 0000 803f
00000020: 0000 803f 0000 803f 0000 803f 0000 803f
00000030: 0000 803f 0000 803f 0000 803f 0000 803f
00000040: 0000 803f 0000 803f 0000 803f 0000 803f
00000050: 0000 803f 0000 803f 0000 803f 0000 803f
00000060: 0000 803f 0000 803f 0000 803f 0000 803f
00000070: 0000 803f 0000 803f 0000 803f 0000 803f
00000080: 0000 803f 0000 803f 0000 803f 0000 803f
00000090: 0000 803f 0000 803f 0000 803f 0000 803f
000000a0: 0000 803f 0000 803f 0000 803f 0000 803f
000000b0: 0000 803f 0000 803f 0000 803f 0000 803f
000000c0: 0000 803f 0000 803f 0000 803f 0000 803f
000000d0: 0000 803f 0000 803f 0000 803f 0000 803f
000000e0: 0000 803f 0000 803f 0000 803f 0000 803f
000000f0: 0000 803f 0000 803f 0000 803f 0000 803f
1.0 1.0 1.0 1.0 1.0 1.0 1.0 1.0
1.0 1.0 1.0 1.0 1.0 1.0 1.0 1.0
1.0 1.0 1.0 1.0 1.0 1.0 1.0 1.0
1.0 1.0 1.0 1.0 1.0 1.0 1.0 1.0
1.0 1.0 1.0 1.0 1.0 1.0 1.0 1.0
1.0 1.0 1.0 1.0 1.0 1.0 1.0 1.0
1.0 1.0 1.0 1.0 1.0 1.0 1.0 1.0
1.0 1.0 1.0 1.0 1.0 1.0 1.0 1.0

main.pyramid_64-128_conv.weight f4 [128, 64, 4, 4]
00000000: c645 67bc 2d3a 19bd e18b f2bb 21aa b73c
00000010: 95b6 e3bc 1c6d febc 47db febc 2e2a 2d3c
00000020: 7da5 e0bb b2fd 443a 9348 0fbd 3d66 16bd
00000030: 9e8e 383c f795 733c 47d6 c5bb 5453 efbb
00000040: 272f 07bc f056 0dbc ef94 d33c 2e46 d7bb
00000050: e9d0 a8bb 9e7b 48b9 44ac 4d3d 6cdc fb3a
00000060: d7aa 823a 5215 8bbc 8707 85bc e822 1ebd
00000070: 707f e83c a52b 2dbd b0b1 d3bc 0af9 a8bc
00000080: 8058 32bb 247e 373c f612 19bd e6f8 a93c
00000090: e7bd 7a3c d678 2ebd c75b a33b 0a51 aaba
000000a0: 888a 1c3c 2b53 fabc d770 5ebc a9a7 b2bc
000000b0: fbc2 4e3c 45e2 0fbc 4080 f03b 12cc cf3c
000000c0: 6567 6abb 346f 9dbc 3182 9a3c 7d22 153d
000000d0: ae45 d3bb dd88 853b 3e9f 583b 4505 823c
000000e0: cd93 1e3a 2c95 533c 02b4 12bd 1eca f8bb
000000f0: 7000 3cbb a14f c43c f576 38bd 104a 8ebb
00000100: c7fb bdbc aa92 333d 828f 6f3d 648f b03c
00000110: 0f18 c1bb c059 5e3b 1de3 293c 86dc 6fbb
00000120: 292a 82bb 1013 60bc b29d bebb 623e 95bc
00000130: c107 f4bc b93c 38bd ca50 813c 80e5 4ebc
00000140: f4e2 f0bb bb32 1cbd 2493 a43c 56a4 15bd
00000150: 499a 8cbb 0d5b 80bc d290 9a3c 7770 ebbc
00000160: 92b1 073c 1e6f 41bd 59f0 b5bc 54cc 80bc
00000170: a21b 89bc 06be 01bb 67c6 0bbc 86c6 c43c
00000180: 31f2 943c 7a41 9c3b b902 fcbb 95ff 063c
00000190: e728 d33b bc98 b7bb 55c7 e7bb d3f7 813c
000001a0: fa2e 02bc 6944 70bc 7f2d 0c3b 6fa0 03bc
000001b0: 8b66 ae3c 2db7 abbc f2df 943c 32a5 16bc
000001c0: e4c5 e0bb f46d e8bc 1083 c0bc 8bc0 24bc
000001d0: 8487 a3bb 3cc5 5f3c 0955 ed3c 9733 5b3c
000001e0: 0241 c0bb a5ea 6dbc 0b19 2bbc a132 d73c
000001f0: 34cb 01bd 4ee2 ae3c 14b1 8b3c cbbd c43c
00000200: 18b2 3b3c 582c b5bc 3154 9bba 07cc dbbb
00000210: 004a 35bc 05de 4b3b 35b6 4fbc 021b 6c3a
00000220: 3821 e4bc 9dae e03b 6fa0 a83c e006 25bc
00000230: 324d 893b eb29 36bc 5bd1 68bc 1bed 2f3c
00000240: c52d acbc b441 7dbc 2f6c 68bc 6fa3 85bc
00000250: 4f1d 043c e7bc 3dbc 2e24 f3ba b3b4 0a3c
00000260: 56c8 013c 59ed d4bc cff6 03bc efcb af3c
00000270: 0913 bb3a 555d 163d 610c c23b 3b3c 84bc
00000280: 9b53 ffbc 5700 6cbc 4dcb c6bc a6cd 8cbc
00000290: 2b9a ce3c f8e8 b7bc c931 003d 8979 06bd
000002a0: 8f06 de3c 584f adbc 8ead 243b 30a9 dd3b
000002b0: 614e 82bb cfc3 f83c 8c6a 17bb 66b1 98bc
000002c0: f0fb edbc 8bdd d33c 6972 b43c 6dab c93c
000002d0: 19bc c5b9 4baf 093c 0e88 a7bc 4651 8db9
000002e0: 7a7c 963b b002 3d3c b9ba f9ba 38a5 40bc
000002f0: cd3e adbb 49d3 61bc d836 37bc de83 d3bb
00000300: 103b 01bc 1b98 753c 991e 6bbb 64fc ccbb
00000310: c13a 78ba 20a2 913b 09fb 00bd 1e69 c6bc
00000320: cf30 533c eaa6 c03c 20fe a5bc 8a16 d43b
00000330: 6053 be3b 9b69 053d 5535 7d3d 6f4a 303c
00000340: fef0 a8bb 8e44 d53b 217d 45b9 1543 ffbb
00000350: 1485 9e3c f2a1 533c 18e3 213a 0b90 123d
00000360: ee09 fb3b b590 1ebc de90 113c 8058 bbbc
00000370: 52ce a93b 3e87 9c3b 2fbc cdbc 7089 6e3c
00000380: 82c3 06bd 7cc5 71bc a765 043c bf83 8fbc
00000390: 9b2c 07bd db1c 6fbc a1eb d23c 4734 05bd
000003a0: c73f 9f3c 28eb 19ba 46db 27bc 9a61 a1bb
000003b0: 18a3 503c 97bb 953b d7e6 f4ba c475 5f3c
000003c0: 164a 033c 2ed1 b8bc cb1e e3bc ca04 ccbc
000003d0: 5f2f 133a e6f5 cf3c dbd1 c33c e2cd 2fbc
000003e0: 6f00 5f3c 9fd3 02bd c679 603b 6b04 a1bb
000003f0: 925f a73c e722 a73c 6b20 a0ba b910 3fbc
-0.014115756 -0.037408996 -0.007401929 0.022419991 -0.027797023 -0.031057887 -0.031110419 0.010569138
-0.0068556652 0.000751461 -0.03498132 -0.036718596 0.011264471 0.014867297 -0.0060375067 -0.0073036347
-0.008250988 -0.008626685 0.025827853 -0.0065696454 -0.005151857 -0.00019119537 0.050213113 0.0019215471
0.0009969127 -0.01697794 -0.01623894 -0.038607508 0.02838108 -0.04227795 -0.025841564 -0.020626564
-0.0027213395 0.011199508 -0.0373716 0.020748567 0.015304065 -0.042595707 0.004985306 -0.0012994122
0.009554513 -0.030557236 -0.013576708 -0.021808462 0.012619729 -0.008781974 0.0073395073 0.025365863
-0.0035767194 -0.019218065 0.018860908 0.036409844 -0.0064475155 0.0040751533 0.00330539 0.015871653
0.0006049246 0.012913983 -0.0358162 -0.0075924536 -0.0028686784 0.023963751 -0.04503532 -0.004342325
-0.023191346 0.04384104 0.05848647 0.021552749 -0.0058927606 0.0033928007 0.010369089 -0.0036599948
-0.003972311 -0.01367642 -0.0058171386 -0.018218223 -0.029788854 -0.044979785 0.015785594 -0.012627959
-0.0073512737 -0.038134318 0.020089693 -0.036533676 -0.004290853 -0.015668416 0.018867884 -0.02874015
0.008282082 -0.04722511 -0.022209333 -0.015722431 -0.01673681 -0.00197971 -0.0085311895 0.024020445
0.018181892 0.0047685476 -0.0076907543 0.008239646 0.006444085 -0.005602924 -0.007073323 0.015865242
-0.00794577 -0.014664748 0.0021389422 -0.008033856 0.02128913 -0.020961368 0.018173192 -0.009194659
-0.006859528 -0.028372742 -0.023499995 -0.010055671 -0.00499052 0.013657864 0.028971212 0.013378999
-0.0058671245 -0.014521276 -0.010442982 0.026269259 -0.03168793 0.021348145 0.01705221 0.024016282
0.011456035 -0.022115871 -0.0011850653 -0.0067076716 -0.011065006 0.0031107676 -0.012677719 0.000900671
-0.027847871 0.006856753 0.020584313 -0.01007244 0.0041901106 -0.011118392 -0.0142100705 0.010737683
-0.021017918 -0.015457559 -0.014185949 -0.016313283 0.008063628 -0.011580682 -0.0018550211 0.008465934
0.007921299 -0.025992082 -0.008054449 0.021459548 0.0014272641 0.036710102 0.005921886 -0.016142001
-0.031167796 -0.014404378 -0.024266863 -0.017187905 0.025219997 -0.022449955 0.03129748 -0.03283075
0.027102737 -0.021155998 0.002512786 0.0067645535 -0.0039766286 0.030366806 -0.0023104278 -0.018639278
-0.029050797 0.025862476 0.022027211 0.024617875 -0.00037714912 0.0084036095 -0.020450618 -0.0002695417
0.0045924755 0.011536285 -0.001905284 -0.011758141 -0.0052870275 -0.013783284 -0.011182509 -0.006454929
-0.007887617 0.014989878 -0.0035876392 -0.0062556732 -0.0009469204 0.0044443756 -0.031489406 -0.024220046
0.012890055 0.02351709 -0.020262778 0.0064724134 0.005808279 0.032571416 0.06181844 0.010759934
-0.0051556816 0.0065084165 -0.00018833998 -0.007789979 0.019350566 0.012917029 0.0006175502 0.0357819
0.007661096 -0.0096780555 0.008884637 -0.022869349 0.005182066 0.0047768643 -0.025114147 0.014559135
-0.032901295 -0.014756557 0.008080876 -0.017518876 -0.033001523 -0.014594282 0.025747122 -0.03252056
0.019439591 -0.0005871528 -0.01024515 -0.004924965 0.012734197 0.0045694816 -0.0018684518 0.013638917
0.008013269 -0.022560682 -0.027724644 -0.024904627 0.0005614664 0.025385808 0.023903778 -0.010730239
0.013610943 -0.0319401 0.003425227 -0.0049138567 0.020431314 0.020402385 -0.0012216693 -0.011661702

main.pyramid_128_batchnorm.weight f4 [128]
00000000: c816 813f 894a 813f 8ae8 723f 8528 823f
00000010: 9f72 7d3f 3fe3 813f 9348 7e3f 7de6 803f
00000020: 783c 7b3f ce91 7d3f 0916 813f 21e8 803f
00000030: 58c9 833f 4121 803f a606 783f 9b6e 7d3f
00000040: 9665 7d3f 42e9 803f 97df 783f db87 7c3f
00000050: 8821 833f e8b4 833f 4954 813f 073b 813f
00000060: d373 793f 8726 833f afc0 813f 2b51 823f
00000070: 210b 813f c97a 7a3f 3c98 7c3f 70f1 7e3f
00000080: 81c7 813f 774d 7d3f c833 7e3f eb68 7e3f
00000090: 5a0c 803f b1be 803f 10c9 7b3f d6e0 813f
000000a0: ae4e 803f a086 7f3f 7f72 803f 5ddc 763f
000000b0: 3fdf 803f c941 823f 903a 833f 89ae 783f
000000c0: b06d 7a3f c095 803f eedb 7f3f 9b34 7d3f
000000d0: 62f0 763f ba2e 813f 71dd 803f 193e 823f
000000e0: 398f 813f 8330 7b3f 2d47 7f3f be49 7e3f
000000f0: cf4e 793f 7257 803f beea 813f ca03 7f3f
00000100: 1ad7 803f f71c 813f 8f15 803f 1fb9 813f
00000110: bc55 813f ef47 7e3f 1446 7b3f 0737 7d3f
00000120: 0753 823f 392b 823f c2d1 863f cb2b 843f
00000130: 3282 773f c62b 813f 1cfc 813f e884 813f
00000140: b85a 823f e4f1 7f3f 9ca5 813f 1b4f 7e3f
00000150: cbc9 7a3f a27d 7e3f 46f4 833f a3fe 763f
00000160: 839a 7e3f 2f70 823f 2937 823f edda 803f
00000170: 38b8 7d3f 6bf2 803f 93ef 773f 65b0 7e3f
00000180: 8229 823f 9554 7e3f 407e 7a3f 3812 793f
00000190: b8a4 7c3f e860 843f ce4d 803f 8231 823f
000001a0: 4211 7e3f 9a60 7b3f da4f 813f c14a 7b3f
000001b0: d6d2 823f 43e0 813f 3c1a 773f c65f 843f
000001c0: 7649 793f 32ce 7a3f dd47 813f 642c 7f3f
000001d0: 4d58 803f 29d4 813f c08a 7c3f d2dc 803f
000001e0: 82df 813f 203b 833f f306 803f 87f8 823f
000001f0: 493b 813f 873b 823f c79a 793f 8825 7f3f
1.0085077 1.0100871 0.94886076 1.0168616 0.9900302 1.0147475 0.9932949 1.007034
0.98139143 0.99050605 1.008485 1.007084 1.029582 1.0010148 0.96885145 0.98996896
0.9898313 1.0071185 0.9721617 0.986448 1.0244608 1.0289583 1.0103847 1.0096139
0.9744236 1.0246133 1.0136927 1.018102 1.0081521 0.97843605 0.9866979 0.99587154
1.0139009 0.98946327 0.9929776 0.9937884 1.0003769 1.0058194 0.9835367 1.014674
1.0024011 0.99814796 1.0034941 0.9643 1.0068129 1.0176326 1.0252247 0.9714132
0.9782362 1.00457 0.9994496 0.98908395 0.96460545 1.0092385 1.0067579 1.0175201
1.0121833 0.981209 0.9971798 0.9933127 0.9738588 1.0026686 1.0149763 0.99615157
1.0065644 1.0086964 1.0006579 1.013462 1.0104289 0.9932851 0.98153806 0.9891209
1.0181588 1.016944 1.0532763 1.0325865 0.9668304 1.0091484 1.0155063 1.0118685
1.0183935 0.9997847 1.0128665 0.99339455 0.9796416 0.9941045 1.0308921 0.96482295
0.99454516 1.0190486 1.0173084 1.0066811 0.9910922 1.007398 0.96849936 0.99487907
1.0168917 0.9934781 0.9784889 0.97293425 0.9868884 1.0342073 1.0023744 1.0171359
0.99245083 0.9819428 1.0102494 0.9816094 1.0220592 1.0146564 0.96524405 1.0341728
0.9737772 0.9797088 1.0100056 0.9967711 1.0026947 1.0142871 0.98649216 1.0067389
1.0146334 1.0252419 1.0002121 1.0232095 1.0096217 1.0174416 0.97501796 0.99666643

main.pyramid_128_batchnorm.bias f4 [128]
00000000: 0000 0000 0000 0000 0000 0000 0000 0000
00000010: 0000 0000 0000 0000 0000 0000 0000 0000
00000020: 0000 0000 0000 0000 0000 0000 0000 0000
00000030: 0000 0000 0000 0000 0000 0000 0000 0000
00000040: 0000 0000 0000 0000 0000 0000 0000 0000
00000050: 0000 0000 0000 0000 0000 0000 0000 0000
00000060: 0000 0000 0000 0000 0000 0000 0000 0000
00000070: 0000 0000 0000 0000 0000 0000 0000 0000
00000080: 0000 0000 0000 0000 0000 0000 0000 0000
00000090: 0000 0000 0000 0000 0000 0000 0000 0000
000000a0: 0000 0000 0000 0000 0000 0000 0000 0000
000000b0: 0000 0000 0000 0000 0000 0000 0000 0000
000000c0: 0000 0000 0000 0000 0000 0000 0000 0000
000000d0: 0000 0000 0000 0000 0000 0000 0000 0000
000000e0: 0000 0000 0000 0000 0000 0000 0000 0000
000000f0: 0000 0000 0000 0000 0000 0000 0000 0000
00000100: 0000 0000 0000 0000 0000 0000 0000 0000
00000110: 0000 0000 0000 0000 0000 0000 0000 0000
00000120: 0000 0000 0000 0000 0000 0000 0000 0000
00000130: 0000 0000 0000 0000 0000 0000 0000 0000
00000140: 0000 0000 0000 0000 0000 0000 0000 0000
00000150: 0000 0000 0000 0000 0000 0000 0000 0000
00000160: 0000 0000 0000 0000 0000 0000 0000 0000
00000170: 0000 0000 0000 0000 0000 0000 0000 0000
00000180: 0000 0000 0000 0000 0000 0000 0000 0000
00000190: 0000 0000 0000 0000 0000 0000 0000 0000
000001a0: 0000 0000 0000 0000 0000 0000 0000 0000
000001b0: 0000 0000 0000 0000 0000 0000 0000 0000
000001c0: 0000 0000 0000 0000 0000 0000 0000 0000
000001d0: 0000 0000 0000 0000 0000 0000 0000 0000
000001e0: 0000 0000 0000 0000 0000 0000 0000 0000
000001f0: 0000 0000 0000 0000 0000 0000 0000 0000
0.0 0.0 0.0 0.0 0.0 0.0 0.0 0.0
0.0 0.0 0.0 0.0 0.0 0.0 0.0 0.0
0.0 0.0 0.0 0.0 0.0 0.0 0.0 0.0
0.0 0.0 0.0 0.0 0.0 0.0 0.0 0.0
0.0 0.0 0.0 0.0 0.0 0.0 0.0 0.0
0.0 0.0 0.0 0.0 0.0 0.0 0.0 0.0
0.0 0.0 0.0 0.0 0.0 0.0 0.0 0.0
0.0 0.0 0.0 0.0 0.0 0.0 0.0 0.0
0.0 0.0 0.0 0.0 0.0 0.0 0.0 0.0
0.0 0.0 0.0 0.0 0.0 0.0 0.0 0.0
0.0 0.0 0.0 0.0 0.0 0.0 0.0 0.0
0.0 0.0 0.0 0.0 0.0 0.0 0.0 0.0
0.0 0.0 0.0 0.0 0.0 0.0 0.0 0.0
0.0 0.0 0.0 0.0 0.0 0.0 0.0 0.0
0.0 0.0 0.0 0.0 0.0 0.0 0.0 0.0
0.0 0.0 0.0 0.0 0.0 0.0 0.0 0.0

main.pyramid_128_batchnorm.running_mean f4 [128]
00000000: 0000 0000 0000 0000 0000 0000 0000 0000
00000010: 0000 0000 0000 0000 0000 0000 0000 0000
00000020: 0000 0000 0000 0000 0000 0000 0000 0000
00000030: 0000 0000 0000 0000 0000 0000 0000 0000
00000040: 0000 0000 0000 0000 0000 0000 0000 0000
00000050: 0000 0000 0000 0000 0000 0000 0000 0000
00000060: 0000 0000 0000 0000 0000 0000 0000 0000
00000070: 0000 0000 0000 0000 0000 0000 0000 0000
00000080: 0000 0000 0000 0000 0000 0000 0000 0000
00000090: 0000 0000 0000 0000 0000 0000 0000 0000
000000a0: 0000 0000 0000 0000 0000 0000 0000 0000
000000b0: 0000 0000 0000 0000 0000 0000 0000 0000
000000c0: 0000 0000 0000 0000 0000 0000 0000 0000
000000d0: 0000 0000 0000 0000 0000 0000 0000 0000
000000e0: 0000 0000 0000 0000 0000 0000 0000 0000
000000f0: 0000 0000 0000 0000 0000 0000 0000 0000
00000100: 0000 0000 0000 0000 0000 0000 0000 0000
00000110: 0000 0000 0000 0000 0000 0000 0000 0000
00000120: 0000 0000 0000 0000 0000 0000 0000 0000
00000130: 0000 0000 0000 0000 0000 0000 0000 0000
00000140: 0000 0000 0000 0000 0000 0000 0000 0000
00000150: 0000 0000 0000 0000 0000 0000 0000 0000
00000160: 0000 0000 0000 0000 0000 0000 0000 0000
00000170: 0000 0000 0000 0000 0000 0000 0000 0000
00000180: 0000 0000 0000 0000 0000 0000 0000 0000
00000190: 0000 0000 0000 0000 0000 0000 0000 0000
000001a0: 0000 0000 0000 0000 0000 0000 0000 0000
000001b0: 0000 0000 0000 0000 0000 0000 0000 0000
000001c0: 0000 0000 0000 0000 0000 0000 0000 0000
000001d0: 0000 0000 0000 0000 0000 0000 0000 0000
000001e0: 0000 0000 0000 0000 0000 0000 0000 0000
000001f0: 0000 0000 0000 0000 0000 0000 0000 0000
0.0 0.0 0.0 0.0 0.0 0.0 0.0 0.0
0.0 0.0 0.0 0.0 0.0 0.0 0.0 0.0
0.0 0.0 0.0 0.0 0.0 0.0 0.0 0.0
0.0 0.0 0.0 0.0 0.0 0.0 0.0 0.0
0.0 0.0 0.0 0.0 0.0 0.0 0.0 0.0
0.0 0.0 0.0 0.0 0.0 0.0 0.0 0.0
0.0 0.0 0.0 0.0 0.0 0.0 0.0 0.0
0.0 0.0 0.0 0.0 0.0 0.0 0.0 0.0
0.0 0.0 0.0 0.0 0.0 0.0 0.0 0.0
0.0 0.0 0.0 0.0 0.0 0.0 0.0 0.0
0.0 0.0 0.0 0.0 0.0 0.0 0.0 0.0
0.0 0.0 0.0 0.0 0.0 0.0 0.0 0.0
0.0 0.0 0.0 0.0 0.0 0.0 0.0 0.0
0.0 0.0 0.0 0.0 0.0 0.0 0.0 0.0
0.0 0.0 0.0 0.0 0.0 0.0 0.0 0.0
0.0 0.0 0.0 0.0 0.0 0.0 0.0 0.0

main.pyramid_128_batchnorm.running_var f4 [128]
00000000: 0000 803f 0000 803f 0000 803f 0000 803f
00000010: 0000 803f 0000 803f 0000 803f 0000 803f
00000020: 0000 803f 0000 803f 0000 803f 0000 803f
00000030: 0000 803f 0000 803f 0000 803f 0000 803f
00000040: 0000 803f 0000 803f 0000 803f 0000 803f
00000050: 0000 803f 0000 803f 0000 803f 0000 803f
00000060: 0000 803f 0000 803f 0000 803f 0000 803f
00000070: 0000 803f 0000 803f 0000 803f 0000 803f
00000080: 0000 803f 0000 803f 0000 803f 0000 803f
00000090: 0000 803f 0000 803f 0000 803f 0000 803f
000000a0: 0000 803f 0000 803f 0000 803f 0000 803f
000000b0: 0000 803f 0000 803f 0000 803f 0000 803f
000000c0: 0000 803f 0000 803f 0000 803f 0000 803f
000000d0: 0000 803f 0000 803f 0000 803f 0000 803f
000000e0: 0000 803f 0000 803f 0000 803f 0000 803f
000000f0: 0000 803f 0000 803f 0000 803f 0000 803f
00000100: 0000 803f 0000 803f 0000 803f 0000 803f
00000110: 0000 803f 0000 803f 0000 803f 0000 803f
00000120: 0000 803f 0000 803f 0000 803f 0000 803f
00000130: 0000 803f 0000 803f 0000 803f 0000 803f
00000140: 0000 803f 0000 803f 0000 803f 0000 803f
00000150: 0000 803f 0000 803f 0000 803f 0000 803f
00000160: 0000 803f 0000 803f 0000 803f 0000 803f
00000170: 0000 803f 0000 803f 0000 803f 0000 803f
00000180: 0000 803f 0000 803f 0000 803f 0000 803f
00000190: 0000 803f 0000 803f 0000 803f 0000 803f
000001a0: 0000 803f 0000 803f 0000 803f 0000 803f
000001b0: 0000 803f 0000 803f 0000 803f 0000 803f
000001c0: 0000 803f 0000 803f 0000 803f 0000 803f
000001d0: 0000 803f 0000 803f 0000 803f 0000 803f
000001e0: 0000 803f 0000 803f 0000 803f 0000 803f
000001f0: 0000 803f 0000 803f 0000 803f 0000 803f
1.0 1.0 1.0 1.0 1.0 1.0 1.0 1.0
1.0 1.0 1.0 1.0 1.0 1.0 1.0 1.0
1.0 1.0 1.0 1.0 1.0 1.0 1.0 1.0
1.0 1.0 1.0 1.0 1.0 1.0 1.0 1.0
1.0 1.0 1.0 1.0 1.0 1.0 1.0 1.0
1.0 1.0 1.0 1.0 1.0 1.0 1.0 1.0
1.0 1.0 1.0 1.0 1.0 1.0 1.0 1.0
1.0 1.0 1.0 1.0 1.0 1.0 1.0 1.0
1.0 1.0 1.0 1.0 1.0 1.0 1.0 1.0
1.0 1.0 1.0 1.0 1.0 1.0 1.0 1.0
1.0 1.0 1.0 1.0 1.0 1.0 1.0 1.0
1.0 1.0 1.0 1.0 1.0 1.0 1.0 1.0
1.0 1.0 1.0 1.0 1.0 1.0 1.0 1.0
1.0 1.0 1.0 1.0 1.0 1.0 1.0 1.0
1.0 1.0 1.0 1.0 1.0 1.0 1.0 1.0
1.0 1.0 1.0 1.0 1.0 1.0 1.0 1.0

main.output-conv.weight f4 [1, 128, 4, 4]
00000000: cf8d 983c e0f2 303d f9ea c0bc bcf6 a33c
00000010: 7af9 8cbc 45f4 c43b 00d9 8a3c 06bb 6a3b
00000020: 5605 043c e1d1 523c dc99 06bc 8de9 c2bc
00000030: 5912 bcbc 8ec0 3abc ac96 dcbb 9729 0d3c
00000040: 0550 6ebc 0040 f93a 5032 9dbc f4b6 1d3c
00000050: c354 693b 4fe1 aabb 582a ffbc 2f1c 06bd
00000060: 9fae 143d 58f6 ddba d991 2c3c 0c81 52bb
00000070: 4548 a8bb b0a4 f1bc 9756 b0bb e061 76bc
00000080: c61b dd3b bf6a 003a a4f1 e43c 309e 62bb
00000090: d859 063d 2e99 4c3c b32f ee3c a5df 403c
000000a0: deba 423b 9c17 343d 2cff cd3a 9210 493b
000000b0: e9da bdbc b958 b33a 9eef afbb e662 0dbd
000000c0: 6974 3dbc ca36 b73b 1d37 303b 2acf 16ba
000000d0: 1cef d33c ede1 393d 72cb c43c cbbd aebb
000000e0: c74c 0bbb 8e09 b3bb 75c9 55ba 0b20 a1bb
000000f0: e93f 28bd c2c4 b73c 50b7 ecbb a98c 9fbc
00000100: 228e 443c bc0d e6bc 9402 37bc e995 cdbc
00000110: 199c 113d 0b9c bc3c a46f 4cbc 2531 09bd
00000120: 0ed4 a8bc 0cd0 6b3c 214b d33c bcc1 23bd
00000130: 01f5 52ba 1822 c53b 2473 183d 2d2f 103c
00000140: cfae cb3c 6a97 c8bc 4deb 3b3c fd80 0b3c
00000150: 9094 903c 5086 cf3c 780d efbc cf15 84bc
00000160: d3a4 bbbb d0cd 58bd f32f 77bb ee82 cabb
00000170: b250 ddba 1043 9e3a d871 98bc df65 05bb
00000180: d071 ae3a c5ed 2fbb 026a 123b a483 813c
00000190: 197a 23bd 9cc6 c9bc 2287 023c 78cd 8f3c
000001a0: 06bd 7e3c 4e46 82bc b2a3 57ba eac5 f2bc
000001b0: 44fa 993b 3da5 533c 179c e33b 12e0 493d
000001c0: 9d27 08bd 6dc8 1cbc 8212 8c3b ac7a 4fbb
000001d0: 37fe aa3c 15f1 633b 678f a03c cb0a 483b
000001e0: 957d 173d efea 8dbc 80b8 98bc 49ee 813c
000001f0: b69f 173b 4da4 c8bb 17a4 1a3d 607b d53b
00000200: 0deb 293c 9bd6 933c b3f5 793a 7044 a0bc
00000210: db99 fa3b a22a 043d 5d85 eabb f7d7 6cba
00000220: cd81 be3c ddff 233c cb41 4f3c 7426 91bc
00000230: 0f69 0e3c 0045 253d 3b0d 053d 6b06 8cbc
00000240: be1f 783c 5024 6bbc c1f5 143b 0062 22bc
00000250: 8443 5bbc 5dbc 03bd 7d41 5dbc 87fe 4cbc
00000260: f0c9 9bbc 2f8d 63ba 2055 fcbc d3b3 8a3c
00000270: 71d3 203d 46c2 a0bc 33c1 4cbd 2136 18bd
00000280: 496e 29bd 5b3d 7cbc 90b6 ae3c cb1a e43b
00000290: 5e90 16bc 586a f7ba 4060 c8bb 5de5 893c
000002a0: ba87 a33c 5b37 06bc 5dff df3c 78d7 f6bb
000002b0: 2a5f e9bc 329a 5bbb b2e9 2f3c cab3 1ebb
000002c0: c2b3 07bd e4ed d13c 815b 023d 5f4a 103c
000002d0: 2cd6 8a3c b878 eabb fb1c 5dbc d609 aabc
000002e0: 1d05 9fbb bb58 8abb 7949 bbba a4cb 263c
000002f0: b579 373b a779 7cbc 57ff 89bb bc54 033d
00000300: 4a19 b6bc 3086 95ba 628b f1bb 2aff dbb8
00000310: f5b0 ddbc 959f 733a 6786 6bbc 6aac 57bc
00000320: 4a3a 7abc 0433 acbc 84b0 3bba fc60 c8bc
00000330: 5d12 443c 909b bf38 29e3 46ba 66ba 15bc
00000340: 4f5f b53b 398b 123d ac5d 66bd 4578 353d
00000350: decb e5bc 79cc d2bc a940 2bbc 40cb 85bb
00000360: 34b3 a2ba e251 6b3b 84c2 373d f439 d13c
00000370: b798 333c f74d 65bb b550 d33c 36e9 14bd
00000380: 159b 233c 6762 473c 893e ca3c 8b9d 2a3d
00000390: 15b4 ba3b 1d92 51bc 35c8 0dbc b698 29bc
000003a0: b384 703c f06a 4a3d 0f93 bdbc 9d6e 73bb
000003b0: 4ed5 d73c a781 483b ec6a 603b f0c7 963c
000003c0: c1ba ad3c e8b5 1c3d c58e c83c 622d aa3c
000003d0: f403 14bb 76ff 27bd eae6 d2bc c627 81bc
000003e0: 922c 473d 5b0e ac3c 7e83 a0bc 6040 6c3c
000003f0: 3525 073d 3abf 88bc 9a90 163d 949b 5d3c
0.018622307 0.043200374 -0.023549544 0.020015113 -0.017208803 0.0060105645 0.016949177 0.003581704
0.008057913 0.012867422 -0.008215394 -0.023793006 -0.022957968 -0.011398448 -0.0067318287 0.008615873
-0.014545445 0.0019016266 -0.01918903 0.009626139 0.00356035 -0.005214847 -0.03114812 -0.03274172
0.036299344 -0.0016934378 0.01053282 -0.0032120375 -0.0051355683 -0.029497474 -0.005381416 -0.015037984
0.0067476956 0.0004898719 0.027947254 -0.003457915 0.032800525 0.012487693 0.02907548 0.011772071
0.0029713432 0.04396783 0.0015716306 0.0030680043 -0.023175674 0.0013683058 -0.0053691408 -0.034518145
-0.011563399 0.005591248 0.0026888319 -0.0005752916 0.025870852 0.045381475 0.024022792 -0.0053326837
-0.002125548 -0.0054637855 -0.00081553246 -0.00491715 -0.041076574 0.022432689 -0.007224001 -0.019476252
0.011996778 -0.028082721 -0.011170048 -0.025095897 0.035549257 0.023023626 -0.012477789 -0.033494134
-0.020608928 0.014392864 0.02579266 -0.03997968 -0.00080473727 0.006016027 0.03721918 0.00880031
0.024863629 -0.024486262 0.011469674 0.00851464 0.017648965 0.0253326 -0.029181227 -0.01612368
-0.0057264357 -0.052930653 -0.003771779 -0.006180159 -0.0016885011 0.001207443 -0.018608972 -0.002035491
0.0013309065 -0.0026844603 0.0022341018 0.015809841 -0.039911363 -0.024630837 0.0079667885 0.01755403
0.015547996 -0.015902665 -0.00082259916 -0.029635388 0.0046990234 0.012917814 0.0069460976 0.049285956
-0.033240903 -0.00956927 0.0042746672 -0.0031658811 0.020873172 0.0034781147 0.01959963 0.0030524011
0.036985 -0.01732394 -0.018642664 0.015860694 0.0023135967 -0.006123102 0.037754145 0.0065149516
0.010370982 0.018046668 0.0009535208 -0.019563884 0.0076477355 0.03226722 -0.0071570114 -0.0009034867
0.023255253 0.010009733 0.012649964 -0.017718531 0.00869204 0.040349007 0.03248332 -0.017092904
0.015144287 -0.014351919 0.0022729489 -0.00991106 -0.013382796 -0.03216206 -0.013504383 -0.012511856
-0.01901719 -0.0008680401 -0.03080231 0.01693145 0.039264146 -0.019623887 -0.049988937 -0.037160996
-0.04136494 -0.015395488 0.021327287 0.006961202 -0.009189693 -0.0018876297 -0.0061149895 0.016833002
0.01996218 -0.008191909 0.027343446 -0.00753301 -0.02848776 -0.0033508656 0.01073687 -0.002421605
-0.033130415 0.02562613 0.031825546 0.008806794 0.016947828 -0.007155504 -0.013495679 -0.020756643
-0.0048529045 -0.0042220033 -0.0014288864 0.010180388 0.0027996127 -0.015409864 -0.004211347 0.03206323
-0.022228856 -0.0011407789 -0.007371352 -0.00010490262 -0.027061919 0.0009293494 -0.014375306 -0.013163665
-0.015272686 -0.02102042 -0.0007159787 -0.024460308 0.011967269 9.1365655e-05 -0.000758695 -0.009138679
0.0055350433 0.035777304 -0.056241676 0.04430415 -0.028051313 -0.025732266 -0.010452428 -0.004083067
-0.0012413026 0.003590696 0.04486324 0.02554033 0.010961703 -0.0034989098 0.02579532 -0.03635522
0.009985705 0.012169457 0.024688022 0.04165415 0.005697737 -0.012791184 -0.00865369 -0.0103513505
0.014680075 0.04941839 -0.023141412 -0.0037144788 0.026346829 0.0030594857 0.0034243418 0.018405885
0.021207215 0.038259417 0.02448214 0.020773593 -0.0022585364 -0.04101511 -0.025744874 -0.015766036
0.04862649 0.021002939 -0.01959395 0.014419645 0.032994468 -0.016692746 0.036758997 0.013525862
